…
print model.predict_proba(X_test2_encoded)


print ""Test 3...""
X_test3 = [{'head': u'governo', 'dep_rel': u'SUBJ'}, 
           {'head': u'atrav\xe9s', 'dep_rel': u'ADVL'}, 
           {'head': u'configuram', 'dep_rel': u'ACC'},
           {'head': u'configuram', 'dep_rel': u'ACC'},]

X_test3_encoded = feat_encoder.transform(X_test3)
print ""Features Encoded""
print X_test3_encoded
print ""Shape""
print X_test3_encoded.shape
print ""decision_function:""
print model.decision_function(X_test3_encoded)
print ""predict_proba:""
print model.predict_proba(X_test3_encoded)


Following is the output obtained:

Test 1...
Features Encoded
  (0, 4)    1.0
Shape
(1, 19)
decision_function:
[[ 0.55372615 -1.02949707 -1.75474347 -1.73324726 -1.75474347]]
predict_proba:
[[ 1.  1.  1.  1.  1.]]
Test 2...
Features Encoded
  (0, 4)    1.0
  (1, 1)    1.0
  (2, 0)    1.0
Shape
(3, 19)
decision_function:
[[ 0.55372615 -1.02949707 -1.75474347 -1.73324726 -1.75474347]
 [-1.07370197 -0.69103629 -0.89306092 -1.51402163 -0.89306092]
 [-1.55921001  1.11775556 -1.92080112 -1.90133404 -1.92080112]]
predict_proba:
[[ 0.59710757  0.19486904  0.26065002  0.32612646  0.26065002]
 [ 0.23950111  0.24715931  0.51348452  0.3916478   0.51348452]
 [ 0.16339132  0.55797165  0.22586546  0.28222574  0.22586546]]
Test 3...
Features Encoded
  (0, 4)    1.0
  (1, 1)    1.0
  (2, 0)    1.0
  (3, 0)    1.0
Shape
(4, 19)
decision_function:
[[ … predict_proba:
[[ … As can be seen, the values obtained with ""predict_proba"" for the instance in ""X_test1"" change when that same instance is with others in X_test2. Also, ""X_test3"" just reproduces the ""X_test2"" and adds one more instance (that is equal to the last in ""X_test2""), but the probability values for all of them change. Why does this happen?
…
",0,392,"The reason that you are getting so much difference is because of smoothing. If you checkout the documentation of MultinomialNB class, checkout the alpha parameter. The default value for that is 1.0. This means that it implements Plus One smoothing by default. Plus one smoothing is a very common technique used with relative frequency estimates to account for unseen data. In Plus One smoothing, we add 1 to all raw counts to account for unseen terms and the sparsity of the document-term matrix.

However, when you end up using TF-IDF weights, the numbers that you get are very small and mostly between 0 - 1. To illustrate, if I use your data and only convert it into TF-IDF weights, this is the small snapshot of the TF-IDF weights that I obtain.

  (0, 80914)    0.0698184481033
  (0, 80552)    0.0304609466459
  (0, 80288)    0.0301759343786
  (0, 80224)    0.103630302925
  (0, 80204)    0.0437500703747
  (0, 80192)    0.0808649191625


You can see that these are really small numbers and adding 1 to them for smoothing will have a drastic effect on the calculations that Multinomial Naive Bayes makes. By adding 1 to these numbers, you completely change their scale for classification and hence your estimates mess up. I am assuming, you have a good idea about how Multinomial Naive Bayes works. If not, then definitely see this video. The video and my answer will be sufficient to understand what is going wrong over here. 
…
SciPy unexpected result,https://stackoverflow.com/questions/55428503,Scipy sparse.kron gives non-sparse matrix,"I am getting unexpected non-sparse results when using the kron method of Scipy's sparse module. Specifically, matrix elements that are equal to zero after performing the kronecker product are being kept in the result, and I'd like to understand what I should do to ensure the output is still fully sparse.

Here's an example of what I mean, taking the kronecker product of two copies of the identity:

import scipy.sparse as sp

s = sp.eye(2)

S = sp.kron(s,s)

S 
&lt;4x4 sparse matrix of type '&lt;class 'numpy.float64'&gt;'
with 8 stored elements (blocksize = 2x2) in Block Sparse Row format&gt;

print(S)

(0, 0)  1.0
(0, 1)  0.0
(1, 0)  0.0
(1, 1)  1.0
(2, 2)  1.0
(2, 3)  0.0
(3, 2)  0.0
(3, 3)  1.0


The sparse matrix S should only contain the 4 (diagonal) non-zero entries, but here it also has other entries that are equal to zero. Any pointers on what I am doing wrong would be much appreciated.
",3,578,"In 

Converting from sparse to dense to sparse again decreases density after constructing sparse matrix

I point out that sparse.kron produces, by default a BSR format matrix.  That's what your display shows.  Those extra zeros are part of the dense blocks.
…
plt.ylabel('accuracy')
plt.xlabel('epoch')
plt.legend(['TRAIN', 'VAL'], loc='lower right')
plt.show()
loss, accuracy = model.evaluate(X_test, y_test)

The model summary prints this out:
 Layer (type)                   Output Shape         Param #     Connected to                     
==================================================================================================
 input_18 (InputLayer)          [(None, 99)]         0           []                               
                                                                                                  
 reshape_17 (Reshape)           (None, 33, 3)        0           ['input_18[0][0]']               
                                                                                                  
 tf.__operators__.getitem_10 (S  (None, 33, 3)       0           ['reshape_17[0][0]']             
 licingOpLambda)                                                                                  
                                                                                                  
 tf.compat.v1.gather_69 (TFOpLa  (None, 3)           0           ['tf.__operators__.getitem_10[0][
 mbda)                                                           0]']                             
                                                                                                  
 tf.compat.v1.gather_70 (TFOpLa  (None, 3)           0           ['tf.__operators__.getitem_10[0][
 mbda)                                                           0]']                             
                                                                                                  
 tf.math.multiply_69 (TFOpLambd  (None, 3)           0           ['tf.compat.v1.gather_69[0][0]'] 
 a)                                                                                               
                                                                                                  
 tf.math.multiply_70 (TFOpLambd  (None, 3)           0           ['tf.compat.v1.gather_70[0][0]'] 
 a)                                                                                               
                                                                                                  
 tf.__operators__.add_31 (TFOpL  (None, 3)           0           ['tf.math.multiply_69[0][0]',    
 ambda)                                                           'tf.math.multiply_70[0][0]']    
                                                                                                  
 tf.compat.v1.size_17 (TFOpLamb  ()                  0           ['tf.__operators__.getitem_10[0][
 da)                                                             0]']                             
                                                                                                  
 tf.expand_dims_17 (TFOpLambda)  (None, 1, 3)        0           ['tf.__operators__.add_31[0][0]']
                                                                                                  
 tf.compat.v1.floor_div_17 (TFO  ()                  0           ['tf.compat.v1.size_17[0][0]']   
 pLambda)                                                                                         
                                                                                                  
 tf.broadcast_to_17 (TFOpLambda  (None, 33, 3)       0           ['tf.expand_dims_17[0][0]',      
 )                                                                'tf.compat.v1.floor_div_17[0][0]
                                                                 ']                               
                                                                                                  
 tf.math.subtract_23 (TFOpLambd  (None, 33, 3)       0           ['tf.__operators__.getitem_10[0][
 a)                                                              0]',                             
                                                                  'tf.broadcast_to_17[0][0]']     
                                                                                                  
 tf.compat.v1.gather_75 (TFOpLa  (None, 3)           0           ['tf.math.subtract_23[0][0]']    
 mbda)                                                                                            
                                                                                                  
 tf.compat.v1.gather_76 (TFOpLa  (None, 3)           0           ['tf.math.subtract_23[0][0]']    
 mbda)                                                                                            
                                                                                                  
 tf.math.multiply_75 (TFOpLambd  (None, 3)           0           ['tf.compat.v1.gather_75[0][0]'] 
 a)                                                                                               
                                                                                                  
 tf.math.multiply_76 (TFOpLambd  (None, 3)           0           ['tf.compat.v1.gather_76[0][0]'] 
 a)                                                                                               
                                                                                                  
 tf.__operators__.add_34 (TFOpL  (None, 3)           0           ['tf.math.multiply_75[0][0]',    
 ambda)                                                           'tf.math.multiply_76[0][0]']    
                                                                                                  
 tf.compat.v1.size_18 (TFOpLamb  ()                  0           ['tf.math.subtract_23[0][0]']    
 da)                                                                                              
                                                                                                  
 tf.compat.v1.gather_73 (TFOpLa  (None, 3)           0           ['tf.math.subtract_23[0][0]']    
 mbda)                                                                                            
                                                                                                  
 tf.compat.v1.gather_74 (TFOpLa  (None, 3)           0           ['tf.math.subtract_23[0][0]']    
 mbda)                                                                                            
                                                                                                  
 tf.compat.v1.gather_71 (TFOpLa  (None, 3)           0           ['tf.math.subtract_23[0][0]']    
 mbda)                                                                                            
                                                                                                  
 tf.compat.v1.gather_72 (TFOpLa  (None, 3)           0           ['tf.math.subtract_23[0][0]']    
 mbda)                                                                                            
                                                                                                  
 tf.expand_dims_18 (TFOpLambda)  (None, 1, 3)        0           ['tf.__operators__.add_34[0][0]']
                                                                                                  
 tf.compat.v1.floor_div_18 (TFO  ()                  0           ['tf.compat.v1.size_18[0][0]']   
 pLambda)                                                                                         
                                                                                                  
 tf.math.multiply_73 (TFOpLambd  (None, 3)           0           ['tf.compat.v1.gather_73[0][0]'] 
 a)                                                                                               
                                                                                                  
 tf.math.multiply_74 (TFOpLambd  (None, 3)           0           ['tf.compat.v1.gather_74[0][0]'] 
 a)                                                                                               
                                                                                                  
 tf.math.multiply_71 (TFOpLambd  (None, 3)           0           ['tf.compat.v1.gather_71[0][0]'] 
 a)                                                                                               
                                                                                                  
 tf.math.multiply_72 (TFOpLambd  (None, 3)           0           ['tf.compat.v1.gather_72[0][0]'] 
 a)                                                                                               
                                                                                                  
 tf.broadcast_to_18 (TFOpLambda  (None, 33, 3)       0           ['tf.expand_dims_18[0][0]',      
 )                                                                'tf.compat.v1.floor_div_18[0][0]
                                                                 ']                               
                                                                                                  
 tf.__operators__.add_33 (TFOpL  (None, 3)           0           ['tf.math.multiply_73[0][0]',    
 ambda)                                                           'tf.math.multiply_74[0][0]']    
                                                                                                  
 tf.__operators__.add_32 (TFOpL  (None, 3)           0           ['tf.math.multiply_71[0][0]',    
 ambda)                                                           'tf.math.multiply_72[0][0]']    
                                                                                                  
 tf.math.subtract_25 (TFOpLambd  (None, 33, 3)       0           ['tf.math.subtract_23[0][0]',    
 a)                                                               'tf.broadcast_to_18[0][0]']     
                                                                                                  
 tf.math.subtract_24 (TFOpLambd  (None, 3)           0           ['tf.__operators__.add_33[0][0]',
 a)                                                               'tf.__operators__.add_32[0][0]']
                                                                                                  
 tf.compat.v1.gather_77 (TFOpLa  (33, 3)             0           ['tf.math.subtract_25[0][0]']    
 mbda)                                                                                            
                                                                                                  
 tf.compat.v1.norm_14 (TFOpLamb  ()                  0           ['tf.math.subtract_24[0][0]']    
 da)                                                                                              
…
 tf.math.reduce_max_7 (TFOpLamb  ()                  0           ['tf.compat.v1.norm_15[0][0]']   
 da)                                                                                              
                                                                                                  
 tf.math.maximum_7 (TFOpLambda)  ()                  0           ['tf.math.multiply_77[0][0]',    
                                                                  'tf.math.reduce_max_7[0][0]']   
                                                                                                  
 tf.math.truediv_7 (TFOpLambda)  (None, 33, 3)       0           ['tf.math.subtract_23[0][0]',    
                                                                  'tf.math.maximum_7[0][0]']      
                                                                                                  
 flatten_7 (Flatten)            (None, 99)           0           ['tf.math.truediv_7[0][0]']      
                                                                                                  
 dense_21 (Dense)               (None, 128)          12800       ['flatten_7[0][0]']              
                                                                                                  
 dropout_14 (Dropout)           (None, 128)          0           ['dense_21[0][0]']               
                                                                                                  
 dense_22 (Dense)               (None, 64)           8256        ['dropout_14[0][0]']             
                                                                                                  
 dropout_15 (Dropout)           (None, 64)           0           ['dense_22[0][0]']               
                                                                                                  
 dense_23 (Dense)               (None, 4)            260         ['dropout_15[0][0]']             
                                                                                                  
==================================================================================================
Total params: 21,316
Trainable params: 21,316
Non-trainable params: 0
__________________________________________________________________________________________________
…
2018-12-29 19:29:12.960804: I tensorflow/core/common_runtime/gpu/gpu_device.cc:988]      0
2018-12-29 19:29:12.960819: I tensorflow/core/common_runtime/gpu/gpu_device.cc:1001] 0:   N
2018-12-29 19:29:12.961681: I tensorflow/core/common_runtime/gpu/gpu_device.cc:1115] Created TensorFlow device (/job:localhost/replica:0/task:0/device:GPU:0 with 11366 MB memory) -&gt; physical GPU (device:
0, name: TITAN Xp, pci bus id: 0000:00:06.0, compute capability: 6.1)
_________________________________________________________________
Layer (type)                 Output Shape              Param #
=================================================================
conv2d_1 (Conv2D)            (None, 16, 98, 98)        160
_________________________________________________________________
conv2d_2 (Conv2D)            (None, 16, 96, 96)        2320
_________________________________________________________________
average_pooling2d_1 (Average (None, 16, 48, 48)        0
_________________________________________________________________
dropout_1 (Dropout)          (None, 16, 48, 48)        0
_________________________________________________________________
conv2d_3 (Conv2D)            (None, 32, 46, 46)        4640
_________________________________________________________________
conv2d_4 (Conv2D)            (None, 32, 44, 44)        9248
_________________________________________________________________
average_pooling2d_2 (Average (None, 32, 22, 22)        0
_________________________________________________________________
dropout_2 (Dropout)          (None, 32, 22, 22)        0
_________________________________________________________________
flatten_1 (Flatten)          (None, 15488)             0
_________________________________________________________________
dense_1 (Dense)              (None, 128)               1982592
_________________________________________________________________
dropout_3 (Dropout)          (None, 128)               0
_________________________________________________________________
dense_2 (Dense)              (None, 256)               33024
_________________________________________________________________
dropout_4 (Dropout)          (None, 256)               0
_________________________________________________________________
dense_3 (Dense)              (None, 1)                 257
=================================================================
Total params: 2,032,241
Trainable params: 2,032,241
Non-trainable params: 0
_________________________________________________________________
Epoch 1/10
   4/8065 [..............................] - ETA: 1:52:06 - loss: 0.9940 - acc: 0.4531 - precision: 0.4947 - recall: 0.71882018-12-29 19:29:54.459471: E tensorflow/stream_executor/cuda/cuda_event.cc:48] E
…
When I upload the model to Vertex AI using the prebuilt Tensorflow 2.7 docker container with no extra settings (no acceleration for example) and deploy that model to an endpoint this is what I get when I call predict with the same input_data formatted for Vertex AI.
resp = client.predict(
    endpoint=endpoint_path,
    instances=input_data.toList(),
    parameters=parameters,
)

input must be 4-dimensional[1,570,33]\n\t [[{{function_node __inference__wrapped_model_28143}}{{node sequential/conv2d/BiasAdd}}]]

Here is the summary of of the model
Model: ""sequential""
_________________________________________________________________
Layer (type)                Output Shape              Param #   
=================================================================
conv2d (Conv2D)             (None, 570, 33, 32)       320       
                                                                
batch_normalization (BatchN  (None, 570, 33, 32)      128       
ormalization)                                                   
                                                                
activation (Activation)     (None, 570, 33, 32)       0         
                                                                
conv2d_1 (Conv2D)           (None, 570, 33, 32)       9248      
                                                                
batch_normalization_1 (Batc  (None, 570, 33, 32)      128       
hNormalization)                                                 
                                                                
activation_1 (Activation)   (None, 570, 33, 32)       0         
                                                                
conv2d_2 (Conv2D)           (None, 570, 33, 32)       9248      
                                                                
batch_normalization_2 (Batc  (None, 570, 33, 32)      128       
hNormalization)                                                 
                                                                
activation_2 (Activation)   (None, 570, 33, 32)       0         
                                                                
conv2d_3 (Conv2D)           (None, 285, 17, 64)       18496     
                                                                
batch_normalization_3 (Batc  (None, 285, 17, 64)      256       
hNormalization)                                                 
                                                                
activation_3 (Activation)   (None, 285, 17, 64)       0         
                                                                
conv2d_4 (Conv2D)           (None, 285, 17, 64)       36928     
                                                                
batch_normalization_4 (Batc  (None, 285, 17, 64)      256       
hNormalization)                                                 
                                                                
activation_4 (Activation)   (None, 285, 17, 64)       0         
                                                                
conv2d_5 (Conv2D)           (None, 285, 17, 64)       36928     
                                                                
batch_normalization_5 (Batc  (None, 285, 17, 64)      256       
hNormalization)                                                 
                                                                
activation_5 (Activation)   (None, 285, 17, 64)       0         
                                                                
conv2d_6 (Conv2D)           (None, 285, 17, 64)       36928     
                                                                
batch_normalization_6 (Batc  (None, 285, 17, 64)      256       
hNormalization)                                                 
                                                                
activation_6 (Activation)   (None, 285, 17, 64)       0         
                                                                
conv2d_7 (Conv2D)           (None, 143, 9, 96)        55392     
                                                                
batch_normalization_7 (Batc  (None, 143, 9, 96)       384       
hNormalization)                                                 
                                                                
activation_7 (Activation)   (None, 143, 9, 96)        0         
                                                                
conv2d_8 (Conv2D)           (None, 143, 9, 96)        83040     
                                                                
batch_normalization_8 (Batc  (None, 143, 9, 96)       384       
hNormalization)                                                 
                                                                
activation_8 (Activation)   (None, 143, 9, 96)        0         
                                                                
conv2d_9 (Conv2D)           (None, 143, 9, 96)        83040     
                                                                
batch_normalization_9 (Batc  (None, 143, 9, 96)       384       
hNormalization)                                                 
                                                                
activation_9 (Activation)   (None, 143, 9, 96)        0         
                                                                
conv2d_10 (Conv2D)          (None, 143, 9, 96)        83040     
                                                                
batch_normalization_10 (Bat  (None, 143, 9, 96)       384       
chNormalization)                                                
                                                                
activation_10 (Activation)  (None, 143, 9, 96)        0         
                                                                
conv2d_11 (Conv2D)          (None, 72, 5, 128)        110720    
                                                                
batch_normalization_11 (Bat  (None, 72, 5, 128)       512       
chNormalization)                                                
                                                                
activation_11 (Activation)  (None, 72, 5, 128)        0         
                                                                
conv2d_12 (Conv2D)          (None, 72, 5, 128)        147584    
                                                                
batch_normalization_12 (Bat  (None, 72, 5, 128)       512       
chNormalization)                                                
                                                                
activation_12 (Activation)  (None, 72, 5, 128)        0         
                                                                
conv2d_13 (Conv2D)          (None, 72, 5, 128)        147584    
                                                                
batch_normalization_13 (Bat  (None, 72, 5, 128)       512       
chNormalization)                                                
                                                                
activation_13 (Activation)  (None, 72, 5, 128)        0         
                                                                
conv2d_14 (Conv2D)          (None, 72, 5, 128)        147584    
                                                                
batch_normalization_14 (Bat  (None, 72, 5, 128)       512       
chNormalization)                                                
                                                                
activation_14 (Activation)  (None, 72, 5, 128)        0         
                                                                
conv2d_15 (Conv2D)          (None, 36, 3, 160)        184480    
                                                                
batch_normalization_15 (Bat  (None, 36, 3, 160)       640       
chNormalization)                                                
                                                                
activation_15 (Activation)  (None, 36, 3, 160)        0         
                                                                
conv2d_16 (Conv2D)          (None, 36, 3, 160)        230560    
                                                                
batch_normalization_16 (Bat  (None, 36, 3, 160)       640       
chNormalization)                                                
                                                                
activation_16 (Activation)  (None, 36, 3, 160)        0         
                                                                
conv2d_17 (Conv2D)          (None, 36, 3, 160)        230560    
                                                                
batch_normalization_17 (Bat  (None, 36, 3, 160)       640       
chNormalization)                                                
                                                                
activation_17 (Activation)  (None, 36, 3, 160)        0         
                                                                
conv2d_18 (Conv2D)          (None, 36, 3, 160)        230560    
                                                                
batch_normalization_18 (Bat  (None, 36, 3, 160)       640       
chNormalization)                                                
                                                                
activation_18 (Activation)  (None, 36, 3, 160)        0         
                                                                
conv2d_19 (Conv2D)          (None, 18, 2, 192)        276672    
                                                                
batch_normalization_19 (Bat  (None, 18, 2, 192)       768       
chNormalization)                                                
                                                                
activation_19 (Activation)  (None, 18, 2, 192)        0         
                                                                
conv2d_20 (Conv2D)          (None, 18, 2, 192)        331968    
                                                                
batch_normalization_20 (Bat  (None, 18, 2, 192)       768       
chNormalization)                                                
                                                                
activation_20 (Activation)  (None, 18, 2, 192)        0         
                                                                
conv2d_21 (Conv2D)          (None, 18, 2, 192)        331968    
                                                                
batch_normalization_21 (Bat  (None, 18, 2, 192)       768       
chNormalization)                                                
                                                                
activation_21 (Activation)  (None, 18, 2, 192)        0         
                                                                
conv2d_22 (Conv2D)          (None, 18, 2, 192)        331968    
                                                                
batch_normalization_22 (Bat  (None, 18, 2, 192)       768       
chNormalization)                                                
                                                                
activation_22 (Activation)  (None, 18, 2, 192)        0         
                                                                
conv2d_23 (Conv2D)          (None, 9, 1, 224)         387296    
                                                                
batch_normalization_23 (Bat  (None, 9, 1, 224)        896       
chNormalization)                                                
                                                                
activation_23 (Activation)  (None, 9, 1, 224)         0         
                                                                
reshape (Reshape)           (None, 9, 224)            0         
                                                                
masking (Masking)           (None, 9, 224)            0         
                                                                
lambda (Lambda)             (None, 224)               0         
                                                                
dense (Dense)               (None, 4)                 900       
                                                                
=================================================================
Total params: 3,554,532
Trainable params: 3,548,772
Non-trainable params: 5,760

I've got a classic case of 'It works on my machine' here and could use any input or help :)
",1,442,"When using Vertex Prediction service with Tensorflow models, following is the expected format of input request as per the docs
…
  return np.random.normal(loc = 0.0, scale = 1e-2, size = shape)

def initialize_bias(shape, dtype=None):
  return np.random.normal(loc = 0.5, scale = 1e-2, size = shape)

Now
model = get_siamese_model((105, 105, 1))
model.summary()

Will build the model succesfully
output
__________________________________________________________________________________________________
Layer (type)                    Output Shape         Param #     Connected to                     
==================================================================================================
input_7 (InputLayer)            (None, 105, 105, 1)  0                                            
__________________________________________________________________________________________________
input_8 (InputLayer)            (None, 105, 105, 1)  0                                            
__________________________________________________________________________________________________
sequential_4 (Sequential)       (None, 4096)         38947648    input_7[0][0]                    
                                                                 input_8[0][0]                    
__________________________________________________________________________________________________
lambda_2 (Lambda)               (None, 4096)         0           sequential_4[1][0]               
                                                                 sequential_4[2][0]               
__________________________________________________________________________________________________
dense_4 (Dense)                 (None, 1)            4097        lambda_2[0][0]                   
==================================================================================================
Total params: 38,951,745
Trainable params: 38,951,745
Non-trainable params: 0
_________________________

","For some reason this is calling the v2 tf.keras initializers instead of the compat.v1 initializers. You are using v1 tensorflow but trying to call a keyword from v2.  To fix this please follow the steps to migrate to tensor flow V2 in the following link.
…
60/60 [==============================] - 5s 76ms/step - loss: 0.0348 - acc: 0.9870 - val_loss: 0.1102 - val_acc: 0.9659
Epoch 31/32
60/60 [==============================] - 5s 76ms/step - loss: 0.0306 - acc: 0.9922 - val_loss: 0.0794 - val_acc: 0.9659
Epoch 32/32
60/60 [==============================] - 5s 76ms/step - loss: 0.0152 - acc: 0.9953 - val_loss: 0.1051 - val_acc: 0.9724
Model: ""sequential_1""
_________________________________________________________________
Layer (type)                 Output Shape              Param #
=================================================================
conv2d_1 (Conv2D)            (None, 113, 43, 32)       896
_________________________________________________________________
max_pooling2d_1 (MaxPooling2 (None, 56, 21, 32)        0
_________________________________________________________________
conv2d_2 (Conv2D)            (None, 54, 19, 32)        9248
_________________________________________________________________
max_pooling2d_2 (MaxPooling2 (None, 27, 9, 32)         0
_________________________________________________________________
flatten_1 (Flatten)          (None, 7776)              0
_________________________________________________________________
dense_1 (Dense)              (None, 128)               995456
_________________________________________________________________
dense_2 (Dense)              (None, 1)                 129
=================================================================
Total params: 1,005,729
Trainable params: 1,005,729
Non-trainable params: 0


So everything looks great, but when I tried to predict the category of 2,000 samples I got very strange results, with an accuracy &lt; 70%.

At first I thought this sample might be biased, so I tried, instead, to predict the images in the validation dataset.
…
